…
          "base_uri": "https://localhost:8080/"
        },
        "id": "rtUVNwJe47R1",
        "outputId": "6ef8150d-bca9-4dfe-fc55-62ea6151df1d"
      },
      "outputs": [
        {
          "output_type": "execute_result",
          "data": {
            "text/plain": [
              "==========================================================================================\n",
              "Layer (type:depth-idx)                   Output Shape              Param #\n",
              "==========================================================================================\n",
              "CondAE                                   [100, 1, 28, 28]          --\n",
              "├─Encoder: 1-1                           [100, 2]                  --\n",
              "│    └─Conv2d: 2-1                       [100, 22, 15, 15]         2,200\n",
              "│    └─BatchNorm2d: 2-2                  [100, 22, 15, 15]         44\n",
              "│    └─ReLU: 2-3                         [100, 22, 15, 15]         --\n",
              "│    └─Conv2d: 2-4                       [100, 44, 8, 8]           15,532\n",
              "│    └─BatchNorm2d: 2-5                  [100, 44, 8, 8]           88\n",
              "│    └─ReLU: 2-6                         [100, 44, 8, 8]           --\n",
              "│    └─Conv2d: 2-7                       [100, 88, 3, 3]           34,936\n",
              "│    └─BatchNorm2d: 2-8                  [100, 88, 3, 3]           176\n",
              "│    └─ReLU: 2-9                         [100, 88, 3, 3]           --\n",
              "│    └─Linear: 2-10                      [100, 2]                  1,586\n",
              "├─Decoder: 1-2                           [100, 1, 28, 28]          --\n",
              "│    └─Linear: 2-11                      [100, 512]                6,656\n",
              "│    └─ReLU: 2-12                        [100, 512]                --\n",
              "│    └─Linear: 2-13                      [100, 792]                406,296\n",
              "│    └─ReLU: 2-14                        [100, 792]                --\n",
              "│    └─ConvTranspose2d: 2-15             [100, 44, 7, 7]           34,892\n",
              "│    └─ReLU: 2-16                        [100, 44, 7, 7]           --\n",
              "│    └─ConvTranspose2d: 2-17             [100, 22, 15, 15]         8,734\n",
              "│    └─ReLU: 2-18                        [100, 22, 15, 15]         --\n",
              "│    └─ConvTranspose2d: 2-19             [100, 1, 28, 28]          199\n",
              "│    └─Sigmoid: 2-20                     [100, 1, 28, 28]          --\n",
              "==========================================================================================\n",
              "Total params: 511,339\n",
              "Trainable params: 511,339\n",
              "Non-trainable params: 0\n",
              "Total mult-adds (M): 604.92\n",
              "==========================================================================================\n",
…
